checkpoint/model_epoch1.pth (torch, 390183 bytes, 12 tensors)

encoder.weight f4 [20, 784]
000000 2c ac 00 bd 75 ae 0a 3d a0 92 a3 3c ba 1f ea 3c
       -0.031414196 0.03385778 0.019967377 0.028579582
000010 1b e6 05 bd ea 1c 70 bc de 33 88 3c 8e cf cd 3c
       -0.03269015 -0.014655331 0.016626295 0.025123384
000020 e4 5e a3 bb 2e f7 8c bc 79 18 05 3d a1 fc ef bc
       -0.004985677 -0.017207708 0.032494042 -0.029295268
000030 01 05 25 3b 19 4e aa ba 27 16 28 bc 43 7c 47 bc
       0.0025179985 -0.0012993246 -0.010259188 -0.012175622
000040 28 39 ff 3b 12 a2 93 3c b8 dd f5 bc 00 21 46 3b
       0.007788796 0.018021617 -0.03001295 0.0030232072
000050 00 0a 05 bc 00 04 97 39 88 93 88 3c 88 0a e1 bb
       -0.00812006 0.00028803945 0.01667191 -0.0068677105
000060 e4 74 0a 3c 78 84 86 bb d7 ad 10 3d 7c 8b 71 bc
       0.00845072 -0.004105147 0.035322037 -0.014742728
000070 9c 7e d3 bb 60 4d c6 ba 71 b7 f9 bc 00 28 e4 bb
       -0.006454302 -0.0015129261 -0.03048298 -0.006962776
000080 93 c2 4b 3b 23 99 07 bd a7 96 36 3c 46 fb 90 bb
       0.0031091317 -0.033105027 0.011144317 -0.0044244854
000090 a4 ef b3 3c 41 16 28 3c 53 fc 29 3d 84 49 41 3c
       0.021964855 0.010259212 0.0415004 0.011797313
0000a0 e8 1e ab 3c 71 07 d4 bc 57 34 1e 3d 62 86 16 3d
       0.02088876 -0.025882455 0.038624134 0.03674925
0000b0 37 5b 4f 3d 0b 66 0d 3d 93 e1 af 3b a6 4e ec 3c
       0.0506241 0.034521144 0.0053674667 0.028846096
0000c0 45 ae 92 3d 78 a0 70 3d c4 db 16 3d e5 a8 4e 3d
       0.071621455 0.058746785 0.03683068 0.05045404
0000d0 b4 c3 19 3c f3 8b 8a bc 90 59 87 bc da b1 f5 3c
       0.009385038 -0.016912436 -0.016522199 0.029992033
0000e0 5c 95 3a 3c 30 67 c7 3c b9 30 ac 3c 0c 7f 02 3b
       0.011388149 0.024341196 0.021019327 0.0019912152
0000f0 25 c3 cd bc 28 df 26 3d cf 99 26 bc 74 6b 76 3c
       -0.025117466 0.040740162 -0.010168507 0.015040267
000100 5c c4 bc 3c 4d 47 89 3d cf 47 be 3d 7e 10 e9 3d
       0.02304285 0.06703053 0.0929104 0.11380099
000110 04 54 ad 3d c4 fc 8e 3d c8 07 0c 3e 4f 17 3f 3e
       0.0846329 0.06981805 0.13674843 0.18661235
000120 7d f0 31 3e ab bc 93 3d 16 d1 fa 3d eb 01 01 3e
       0.17376895 0.0721372 0.12246911 0.12598388
000130 01 9b 1f 3e 08 ca b5 3d 9a 9a c8 3d d8 08 63 3d
       0.15586473 0.08876425 0.09795113 0.055428356
000140 95 b5 05 3d fb 8a 0e 3d 3c 39 ed bc a3 ea 81 bc
       0.032643873 0.03480051 -0.028957956 -0.015858954
000150 00 5f 5c 3b 63 6f b8 bc 8f 89 8f bc 14 d4 48 bd
       0.003362596 -0.02251405 -0.017521648 -0.04903038
000160 b5 18 e7 3c af 28 19 3d 0c da 43 3d ce 22 83 3c
       0.028210023 0.037392315 0.047815368 0.016007807
000170 06 e4 b5 3c cc 93 57 3d 8c 75 bc 3d 8c c3 8c 3d
       0.022203457 0.052631184 0.09202108 0.06873235
000180 ed 63 82 3d ca 0e d7 3d f6 be 46 3e bd a3 37 3e
       0.063667156 0.10500868 0.19408783 0.17933555
000190 a1 e2 dd 3d 5d 11 0a 3e 1c 2a 54 3e 2f 1a 39 3e
       0.10834242 0.13483186 0.20719188 0.18076394
0001a0 fa b4 1c 3e b4 9f 2c 3e 84 05 e0 3d e2 83 a8 3d
       0.15303412 0.16857797 0.10938552 0.0822828
0001b0 ae 24 3f 3d 6c a7 ea 3c f0 29 09 3c 51 99 f2 bc
       0.04666584 0.028644286 0.008371815 -0.029614123
0001c0 37 20 10 bd cb e8 b4 38 7d 7d 25 bc f6 2b ed b8
       -0.035186972 8.62643e-05 -0.0101007195 -0.00011309229
0001d0 c3 31 a9 3d f6 ee a8 3d b5 8f 2e 3d d4 a5 a7 ba
       0.082614444 0.08248703 0.04261752 -0.001279051
0001e0 66 3d b9 bc 2a d5 8c 3d 7f 1e 8a 3d ce b7 9e 3c
       -0.022612285 0.06876595 0.06744098 0.019374754
0001f0 b6 56 a1 3d a1 3b 7a 3d 53 72 8b 3d 02 ca ad 3d
       0.07877867 0.061092023 0.06808915 0.084857956
000200 4c 43 bd 3d ea dd b6 3d fe 74 11 3e b5 45 25 3e
       0.092413515 0.089290455 0.14204785 0.16139872
000210 63 cf 31 3e 13 54 21 3e e8 93 23 3e 59 9b e9 3d
       0.17364268 0.15754728 0.1597439 0.11406583
000220 ba 6a 9d 3d 97 86 c4 3c e8 82 05 3c 25 ad f1 3c
       0.07686372 0.023989959 0.008148886 0.029501507
000230 60 9b f2 3b aa dc b8 3c 8b 58 23 3d 17 26 fe 3c
       0.007403776 0.022566158 0.039879363 0.031024022
000240 6a 28 d5 3c 67 ee 22 3a 65 6a 7f bc 87 dc d7 3c
       0.026020247 0.0006215334 -0.015589331 0.026350273
000250 16 41 da 3c 27 3d 6a 3d ca a6 94 3d 24 58 7e 3d
       0.026642364 0.057187226 0.07258375 0.062095776
000260 14 0f b4 3d 2e 34 91 3d d4 b1 7c bd 9a e3 b2 bd
       0.087919384 0.070900306 -0.061693028 -0.08734818
000270 83 9f cf 39 b7 09 e8 3d 09 3d d0 3d c8 f9 dd 3d
       0.00039600962 0.11329978 0.101678915 0.108386576
000280 c2 eb 0f 3e 46 f6 0d 3e e3 fa 93 3d 07 71 61 3d
       0.14054778 0.13863477 0.07225587 0.055039432
000290 ec fb e4 3d ed 93 b7 3d a0 ad 78 3d 61 b6 98 3c
       0.11180863 0.089637615 0.060712457 0.018641653
0002a0 24 14 4f 3c a2 31 dd 3c 76 83 ff 3c 7e f4 28 3c
       0.012639079 0.027001206 0.031190615 0.010312198
0002b0 16 9f 62 3c f3 24 e0 3b 30 a3 1b bd eb 98 02 bc
       0.013831874 0.006840342 -0.037997425 -0.007971029
0002c0 e8 d7 bc 3c a0 dd e2 3d d0 ac ca 3d 5f aa 7e 3d
       0.02305217 0.11077428 0.098962426 0.062174197
0002d0 8d 0f 55 3c bd 65 88 bd cf 61 22 be a4 2d d4 bd
       0.013004196 -0.0666003 -0.15857624 -0.10360268
0002e0 20 ab 28 3d e7 77 b9 3d a9 fd 9b 3d 4b 31 48 3d
       0.041178823 0.09056073 0.07616741 0.048875134
0002f0 0a 8b dd 3d fa 52 e9 3d be 1f 5f 3d 49 b1 2f 3b
       0.10817535 0.1139278 0.05447363 0.002680855
000300 8a f6 6c 3d b4 4d 89 3d cb 8e 16 3d 39 20 e0 3b
       0.057852305 0.06704274 0.03675727 0.0068397787
000310 e9 03 2d 3d 73 02 3b 3d 3f 20 b3 3c 0a f2 3b bb
       0.042240057 0.045656633 0.021865962 -0.0028678202
000320 bc c8 e9 bb a8 59 4c bb 02 4a bd bc b3 94 26 3d
       -0.007134525 -0.003118137 -0.023106579 0.040669154
000330 d5 f7 8d 3d be e9 cb 3d 42 1f 0a 3e 7c cb fa 3d
       0.06932036 0.09956692 0.13488486 0.12245843
000340 86 d2 75 3d 08 7d 08 be 72 59 c0 bd 0a be f9 3b
       0.060015224 -0.13328946 -0.0939206 0.0076215314
000350 02 76 11 3d fe 65 ea 3d 60 5c 64 3d dd d1 30 3d
       0.03551293 0.11445235 0.05575216 0.04316889
000360 e2 c9 59 3d d8 5b 8b 3d ee 3f c1 bb 3a 5c a9 bc
       0.053171046 0.06804627 -0.0058975136 -0.02067386
000370 81 37 70 bc 8c fd 30 3d a8 69 7f bb d6 cf 20 bd
       -0.014661671 0.04321055 -0.0038972888 -0.039260708
000380 d3 ae 79 3d 90 20 72 3c 46 04 45 3d 28 84 74 3d
       0.06095774 0.014778271 0.04809978 0.059696347
000390 73 28 22 3c 95 e9 eb 3b 22 cb bb bb 96 76 a0 3c
       0.009897339 0.007199476 -0.0057310024 0.019587796
0003a0 1e 34 b5 3d ae 2b 1e 3e e6 35 72 3e 76 4a 1f 3e
       0.08847831 0.1544635 0.23653373 0.15555748
0003b0 ee 27 2e 3d 0e 91 ca bd d4 0f c8 3c d2 74 67 3d
       0.04251855 -0.09890948 0.02442161 0.056507893
0003c0 c6 1d 9b 3d 42 b5 37 3d 95 36 2c 3d bf 7e 4a bd
       0.07574038 0.044850595 0.04204424 -0.04943728
0003d0 5d 81 2b bd 2e 2b 8c bd c7 1a c6 bd 4f c6 85 bd
       -0.041871417 -0.06844173 -0.09673076 -0.06531965
0003e0 5d 21 2c 3d cc 27 86 3d a2 5a 17 3d f4 c2 18 3a
       0.042024005 0.065505594 0.03695167 0.000582739
0003f0 ab 69 34 3d 1e 0d 95 3d a3 26 c5 3c 8f 77 cb 3d
       0.044046085 0.072778925 0.024066275 0.09934913

encoder.bias f4 [20]
000000 b1 da 74 3e 12 d7 4e 3e e1 8f 9a 3e 44 07 54 3f
       0.23911549 0.2019923 0.30187896 0.82823586
000010 0a b6 9e be d3 bf 88 3b 3b 17 b3 3e ef 33 ab 3e
       -0.3099826 0.004173258 0.3497866 0.3343806
000020 d3 52 21 bd c7 6a 5e 3e 75 3a 4c 3f 28 c9 8e 3e
       -0.039385628 0.2172042 0.797767 0.27887845
000030 f6 54 27 bc 49 0f f2 bd a9 01 89 3e 1d 63 58 3e
       -0.010213127 -0.11819322 0.2675908 0.21131559
000040 03 2a 1f be 43 10 30 be d6 34 35 3c ea 92 a2 3e
       -0.1554337 -0.17193703 0.01105996 0.31752712

decoder.weight f4 [784, 20]
000000 17 59 4b 3d c8 2d 40 be 5c a9 d1 3c 38 57 1e be
       0.04964551 -0.18767464 0.025593452 -0.15462959
000010 1c 26 9a be 96 10 0d be 76 36 b9 bd 7f e9 0b 3d
       -0.301072 -0.13775858 -0.09043591 0.034158226
000020 ba b7 5a be 54 8e 36 be 2f cb e0 be 7d 23 c2 bd
       -0.21359149 -0.17827731 -0.43905017 -0.09479425
000030 27 24 ac 3d 12 c6 4f 3d 45 07 88 bd 94 78 48 bd
       0.08405333 0.050726004 -0.066420116 -0.048943117
000040 54 13 4c be 7d 08 46 be a4 b5 19 be 43 04 93 bc
       -0.19929248 -0.19339176 -0.15010697 -0.017946368
000050 06 71 05 be 45 b1 75 be bd 4c 00 3e e2 45 9e bd
       -0.13031396 -0.23993404 0.12529273 -0.07728173
000060 7b 37 ed bc c1 97 32 3e 47 69 1c be 45 6f 1c 3c
       -0.02895712 0.17440702 -0.15274535 0.009548013
000070 3f 19 33 3c eb 89 27 be 21 78 e3 be 89 9c a4 bd
       0.010931312 -0.16361205 -0.4442759 -0.08037669
000080 1c 70 09 3e f8 81 35 be a4 dd 6d be 95 9e ff bd
       0.13421673 -0.1772536 -0.2322908 -0.12481419
000090 83 b7 03 be 97 17 c9 3d 81 0a 43 bd a4 c2 b7 3d
       -0.12862973 0.098189525 -0.04761744 0.08972672
0000a0 f5 05 b6 3d dd 7e e7 bd ea dc 46 bd 66 ea 92 bc
       0.08887855 -0.11303494 -0.048550524 -0.017934036
0000b0 eb 23 a7 be 90 cb 8a bd 6c cb 55 bd 7c 75 62 be
       -0.3264459 -0.06777108 -0.05219595 -0.22115129
0000c0 a1 11 91 bd c9 4d 8b be 02 ce d1 be 2b d9 f6 bd
       -0.070834406 -0.27207783 -0.40977484 -0.1205314
0000d0 56 8c af 3b af a3 71 bd 1f bf 85 bd f8 2f 2a be
       0.0053573055 -0.05899399 -0.06530594 -0.16619861
0000e0 c5 18 44 3d 26 95 f5 bb 3c d7 7b 3d d5 2f 48 bd
       0.047875185 -0.0074945865 0.06148456 -0.04887374
0000f0 2a 19 bd 3d 8e 04 8b be 4d 5c 09 3d 38 8e 46 bd
       0.09233315 -0.27151912 0.03353529 -0.048475474
000100 9d c2 54 be c6 bb 4c 3e 13 e1 59 be 8d a0 d9 bd
       -0.20777364 0.19993505 -0.21277265 -0.10626326
000110 e5 78 b9 bd 5b c4 8a be ed ce 8c be 7e fc 56 3d
       -0.09056262 -0.27102932 -0.27501622 0.05248689
000120 ee a3 b4 3d 3b 5d 74 bd 17 be ba 3d 9f 35 32 3c
       0.088203296 -0.059659224 0.09118288 0.010877042
000130 ac 33 2f be 91 28 80 be 29 11 81 bd 8d 31 44 bd
       -0.17109555 -0.2503095 -0.06302101 -0.047898818
000140 b1 b1 49 be 7c 6f 76 be 30 ac a7 bc d9 a0 65 bd
       -0.1969669 -0.24065965 -0.020467848 -0.0560616
000150 a0 4e 89 bd 34 9c 82 3d db 76 9b bc 0f 19 7a be
       -0.0670445 0.0637745 -0.018977573 -0.24423622
000160 b3 b3 6d be f7 37 40 bd e3 2a a9 be da 51 e1 bc
       -0.23213081 -0.046928372 -0.33040532 -0.02750485
000170 a3 19 72 bd a4 c7 6d be fe cf 21 be 2d 03 16 3e
       -0.05910648 -0.23220688 -0.15801999 0.14649649
000180 f8 f9 32 be 61 6c 60 be ce 3b 17 be bc 17 d3 3d
       -0.17478168 -0.21916343 -0.14768907 0.10307261
000190 4b 46 16 3d 0d f4 a0 3d 5f 62 f1 bc 8e 9d f7 bc
       0.03668813 0.07859049 -0.029465852 -0.030226495
0001a0 17 74 0e be 81 35 1c 3d fc 06 c0 bd c7 3b 63 3c
       -0.13911472 0.038136963 -0.09376332 0.0138692325
0001b0 04 57 c4 3d 20 dc 5d bd fb 5a e7 be cc 9b 12 be
       0.095869094 -0.054165006 -0.451866 -0.14317244
0001c0 59 85 c5 3d 98 e5 5d be 18 df 21 be f4 a5 7e be
       0.09644575 -0.21669614 -0.1580776 -0.24867994
0001d0 66 70 1a be d8 57 35 3d c2 73 0e be d1 30 87 be
       -0.15081939 0.044273227 -0.13911346 -0.2640443
0001e0 e3 e4 1f be e9 15 e5 bd a0 e4 c9 3c 2d 90 72 be
       -0.15614657 -0.1118582 0.02464515 -0.23687811
0001f0 8d ab 78 be 5f 8e 37 3e e6 40 81 be 77 6a e4 bd
       -0.24284191 0.17925404 -0.25244826 -0.11153119
000200 7c 8b 85 3d b6 06 df bc f5 2f 2e be 0c b2 a4 bd
       0.06520745 -0.02722488 -0.17010482 -0.08041772
000210 57 45 32 3e 13 e9 ed bc 00 38 22 be 8b 60 22 3d
       0.17409264 -0.029041803 -0.15841675 0.03964285
000220 6c a0 43 be f2 de 6c be e6 80 0b bd 4c 2c 86 3d
       -0.19104165 -0.23131922 -0.034058474 0.06551418
000230 05 7e 92 3d 92 01 5d be f6 c4 58 be 01 0c a4 be
       0.071529426 -0.2158263 -0.21168885 -0.32040408
000240 bb 79 87 be 18 3b 5c be d4 5c 13 3e e9 d6 13 be
       -0.2646006 -0.21506917 0.1439088 -0.1443745
000250 18 8f 30 3e ae 92 b3 bd 9e 82 bc be 55 ea d6 3d
       0.17242086 -0.08768211 -0.36818403 0.10493914
000260 9e 81 60 be 4a 46 92 be 6e be 2e be c8 7a 43 3c
       -0.21924445 -0.2856925 -0.1706483 0.011931129
000270 36 39 00 3e dd 25 89 bd 38 41 00 be 93 9c 9f bc
       0.12521824 -0.06696675 -0.12524879 -0.01948384
000280 2d e9 af 3d 2e a5 01 bd ae fa 5c bd 7d 64 0f 3c
       0.085893966 -0.03165167 -0.053950004 0.008751986
000290 2a f9 7c be 29 3b 67 be 1d 4d d6 bd 94 fc 9b 3c
       -0.24704424 -0.22581162 -0.10463927 0.019041337
0002a0 9c 54 5c be 7a f2 1b be c0 1b 4a be a1 61 8c be
       -0.21516651 -0.15229216 -0.19737148 -0.27418235
0002b0 0b 80 df 3d 60 4a 65 be ce 0e 8c 3d 11 7b 19 be
       0.10913094 -0.22391653 0.06838761 -0.14988352
0002c0 9c fc 40 be 01 ab 24 be 95 00 0f 3e 3d 1d f0 bd
       -0.18846363 -0.16080858 0.13965066 -0.11724327
0002d0 15 4d b9 3d e5 a7 37 be d5 7a 07 3e d7 d6 af bd
       0.09047905 -0.1793514 0.1323045 -0.08585899
0002e0 fd a0 41 be 58 00 2e be 1c e3 0a 3e 0f ad 2f be
       -0.18909068 -0.16992319 0.13563198 -0.1715586
0002f0 ce 9f 1a 3e d8 65 32 3d 26 05 8d be b7 6a 76 be
       0.15100023 0.043554157 -0.2754299 -0.24064146
000300 5a 8d 4b 3d 5b 55 4c be e1 68 82 3c c2 8c 1d bc
       0.04969535 -0.19954436 0.01591915 -0.009616079
000310 21 40 a0 be c7 7f 5c be 96 33 b2 bc 4b df 90 bd
       -0.31298926 -0.21533118 -0.021753114 -0.0707384
000320 8c 80 e5 3d 4f 28 91 be f5 b5 14 3e e7 af 27 be
       0.11206159 -0.28351066 0.14522536 -0.16375695
000330 18 5e 53 bd b8 23 bd bd b0 12 98 3d 56 a2 25 be
       -0.051603407 -0.092353284 0.07425439 -0.16175207
000340 d2 b4 b8 bd 77 dd 84 be c6 74 c2 be 21 bf 96 3d
       -0.09018864 -0.25950214 -0.37979716 0.07360674
000350 28 33 fa 3d 89 e8 2a 3c 30 6c 98 be 20 f4 55 3d
       0.122167885 0.010431417 -0.2977004 0.05223477
000360 13 f3 2f be 45 09 88 be 9b 96 41 3e 34 21 47 be
       -0.17182569 -0.26569572 0.18905108 -0.1944626
000370 b0 21 6f be f5 bc 2c 3d f9 b0 2d bd ca 04 be bc
       -0.23352695 0.04217239 -0.042405102 -0.023195643
000380 f6 75 a8 be 75 32 41 be fc 98 a1 be 8b 47 a4 be
       -0.32902497 -0.18866904 -0.3156203 -0.32085833
000390 36 52 b1 3d a3 9e 9e bc 8a 23 0a bf ba 9a f0 3d
       0.086582586 -0.019362753 -0.5396048 0.11748262
0003a0 97 5a e8 3c c8 f5 e1 3d ea 9f ed bd 21 1f 1f 3d
       0.02836351 0.11033207 -0.11602767 0.038848046
0003b0 ea 46 8c 3d 65 31 40 be c2 59 43 be 3c 58 bc bd
       0.06849463 -0.18768843 -0.19077209 -0.09196517
0003c0 fd 5b 11 bd dc 4d df bd 23 eb 6c 3d 25 36 8e be
       -0.035488117 -0.10903522 0.05784143 -0.27775684
0003d0 b4 c6 af bc 8d 9c c5 3d 6a 61 52 be 25 d2 1a 3b
       -0.021457054 0.09649 -0.20544973 0.002362379
0003e0 eb db 4e be d3 70 57 be 50 2a 1e bf 2d 7b 7b bd
       -0.2020108 -0.21039133 -0.61783314 -0.061396766
0003f0 85 3a 6e be 6f a4 8b be dc f3 74 bd be f9 b5 3d
       -0.23264511 -0.2727389 -0.059802875 0.08885525

decoder.bias f4 [784]
000000 71 f2 3e 3d d8 08 7c be 6d 81 f5 3d 7d 61 25 3e
       0.04661793 -0.24612749 0.11987577 0.1615047
000010 87 0a db 3d e3 a5 7f be c0 ce 85 be e4 73 35 be
       0.10695367 -0.24965625 -0.261343 -0.1771999
000020 9d e0 47 be c1 e0 e4 bd ac 29 0f be 56 06 50 3c
       -0.19519277 -0.11175681 -0.1398074 0.012696823
000030 15 7a 39 be 36 3b 49 bd ea 73 43 be 72 9d 28 3e
       -0.18112977 -0.049128734 -0.19087186 0.1646631
000040 69 58 55 be d7 5a 85 3d 18 46 1b 3c e4 eb 81 be
       -0.20834507 0.06511467 0.009477161 -0.25375283
000050 2c 7b c0 3b 52 8e 93 3d a3 f7 06 be f3 99 82 be
       0.005874058 0.0720488 -0.13180403 -0.2550808
000060 cc 54 2a be 49 45 1a bb 1c fb dc 3d 35 5c 6d be
       -0.1663391 -0.0023539832 0.10790083 -0.23179705
000070 b3 6d a0 bc e1 0b 3f be 04 e0 42 3e 93 61 94 bc
       -0.019583559 -0.18656875 0.19030768 -0.018112933
000080 51 03 82 bb f3 b4 51 3d fd 78 ca 3d b8 35 ca bd
       -0.0039676805 0.051197957 0.09886358 -0.09873527
000090 92 26 bb 3d 4f 97 d0 3d 89 41 13 bd b1 6f 40 be
       0.09138216 0.1018511 -0.03595117 -0.18792607
0000a0 7f bf 5a be db 9c 26 3e e7 f5 1a be 07 65 63 be
       -0.21362112 0.16270773 -0.15132867 -0.22206508
0000b0 dc b7 50 be 96 89 ee bd 7c 33 95 3b 99 44 5b be
       -0.20382637 -0.11647336 0.0045532566 -0.21412887
0000c0 65 c0 09 3e 5e b8 7b be a3 ca d2 3d d4 27 42 be
       0.13452299 -0.24582049 0.10292556 -0.18960506
0000d0 82 cf 3a bc 70 ed 23 3e 7d c4 fe bd 3f aa 7e be
       -0.011402013 0.16008544 -0.12439821 -0.24869631
0000e0 93 2b 13 3d dd 89 34 3e dd 32 5f 3d aa 9c fb bd
       0.035930227 0.17630716 0.054491866 -0.12285741
0000f0 12 62 17 be 48 1b da bd 4a 42 85 bc db bd 2a 3c
       -0.14783505 -0.10649735 -0.01626696 0.010421242
000100 6a 88 97 3d eb 96 6e be 42 e4 68 bd 22 0a d7 bd
       0.07399066 -0.23299758 -0.05685831 -0.104999796
000110 c9 23 0d 3e 68 7a 40 bd 42 d1 74 be 4d 39 05 be
       0.13783182 -0.046991736 -0.2390795 -0.1301014
000120 fe de 22 be d4 e1 6f bd 18 4d 62 bd 6c 6d ae 3c
       -0.15905377 -0.058564976 -0.055249304 0.02129241
000130 50 3d b9 bc 2f e9 45 be eb de eb 3d 77 73 d6 bc
       -0.022612244 -0.19327234 0.115171276 -0.026178105
000140 74 f5 cf bd 25 8b 04 3d 35 8a 6f 3d 6e 85 7b be
       -0.10154238 0.03235926 0.058481414 -0.24562618
000150 de aa f4 bc 98 f8 ad 3d d3 fd d2 3d 96 89 e7 bd
       -0.029866632 0.08494681 0.103023194 -0.11305539
000160 8b 1f 51 3c 04 7b 99 bd 00 e3 cf 3c bf ad 22 3e
       0.012763868 -0.074941665 0.025376797 0.15886591
000170 67 07 17 bd 88 d4 fb 3d c5 53 6b 3d 62 0e 73 be
       -0.036872294 0.122963965 0.057452936 -0.23735955
000180 5e 37 97 bd 2f 95 0e bd 61 c6 d3 3d df 6e 41 3d
       -0.07383607 -0.03481024 0.10340572 0.047224876
000190 d6 54 09 3d f9 38 35 be 3a 42 52 be bf 97 5c be
       0.03352817 -0.17697515 -0.20533076 -0.21542262
0001a0 cc dd 98 bd c3 2e ac 3d 57 0a ef bd c6 60 0d be
       -0.074641794 0.084073566 -0.11671894 -0.13806447
0001b0 b2 51 36 be b2 48 bd 3c 00 59 92 3d e3 e9 7f be
       -0.17804602 0.023105953 0.07145882 -0.24991564
0001c0 89 d0 2f 3e 6a e1 86 be 6b 22 e2 bd bb 3b 03 be
       0.17169394 -0.26343852 -0.11041721 -0.12815754
0001d0 9c 87 b5 3d f1 c7 5b 3d db da 64 be 6a 5f 74 be
       0.08863756 0.053657476 -0.22349112 -0.23864523
0001e0 06 b2 d7 3c 2b ae d3 bc 29 25 21 3e 5b 66 cd bd
       0.026330005 -0.025839886 0.15736832 -0.100292884
0001f0 23 94 4d bd d1 2f 18 be f2 08 b3 be 55 e8 21 be
       -0.050190102 -0.1486199 -0.34967762 -0.15811284
000200 94 cc cc be 1f 74 8e be 9c 3f a2 bd 60 9a 95 be
       -0.3999983 -0.27822968 -0.07922289 -0.2921934
000210 8a ee 7f 3d 86 f8 ec 3d e0 da 5e be 3f f3 83 be
       0.062483348 0.115708396 -0.21763182 -0.2577152
000220 fe 5f 25 be 25 37 87 bd 58 6d a0 3c 8f d3 eb 3d
       -0.161499 -0.06602315 0.01958339 0.11514961
000230 ea 7d 5a bd e7 c4 0b 3a 66 cb 90 3c e2 a4 de bc
       -0.053342737 0.000533177 0.017675113 -0.027178232
000240 dd 50 35 3e 05 01 43 be 4a 13 d0 3d e0 4d 93 be
       0.17706628 -0.19043358 0.10159929 -0.2877035
000250 d4 44 32 bd 4a 0d bb 3b 4c 77 4e bd f9 79 ac be
       -0.04352267 0.0057083713 -0.05040674 -0.33686808
000260 77 01 c5 3d 60 63 1f bd a3 01 d8 bd 4f 7c 87 be
       0.0961942 -0.03891313 -0.10547187 -0.26462027
000270 98 f9 e1 be cf 4b e8 be 7a 85 b7 be 1c fb ab be
       -0.44135737 -0.45370337 -0.35844022 -0.3359002
000280 6c df dc bd 18 70 27 3d 79 ff b3 bd cd 38 3a be
       -0.10784802 0.040878385 -0.08788962 -0.1818573
000290 0e 13 b7 3c 02 07 fb 3d 17 93 b0 3d 3e 95 09 3d
       0.022347953 0.12257196 0.08621805 0.033589594
0002a0 1f ad 6e bd 40 c8 b3 bd 2d 0f 78 bd b2 1f db bd
       -0.05827057 -0.08778429 -0.060561348 -0.10699405
0002b0 d8 51 17 be a9 8d e7 3d 95 20 6b be 79 5c 04 3d
       -0.14777315 0.113063164 -0.22961648 0.03231475
0002c0 27 f4 f4 3d ec 49 34 be 59 00 14 be cf 20 a1 bc
       0.11960631 -0.17606324 -0.14453258 -0.019668965
0002d0 ce 24 1e be 2d 56 2e be 97 22 18 be 8a 94 2a be
       -0.15443727 -0.17025061 -0.14856945 -0.16658226
0002e0 e7 47 46 be c9 cd cc be 5e 61 8f be 92 5b 96 be
       -0.19363366 -0.40000752 -0.28003973 -0.29366738
0002f0 1f 8b a4 bc 87 68 1c be 7c ff 8f be 74 e0 14 bd
       -0.02008587 -0.15274249 -0.28124607 -0.036346868
000300 32 a7 e9 bd 5d 34 0b 3e a2 08 d9 3d f8 d7 6a bd
       -0.11408843 0.13594194 0.1059735 -0.05733487
000310 f4 e9 0e bd bd 42 8a be e2 54 4e be 50 41 30 3e
       -0.034891084 -0.27004042 -0.20149568 0.17212415
000320 2d 44 0e 3e ea e2 2c 3e ef 26 92 be 1e 41 c5 bb
       0.13893194 0.16883436 -0.2854533 -0.0060197255
000330 10 2f 83 be 4a 45 94 be 17 41 c0 be ff a4 b2 be
       -0.25621843 -0.28959113 -0.3754966 -0.34891507
000340 87 16 01 bf 09 00 be be 30 62 e6 be b5 24 dc be
       -0.50425 -0.37109402 -0.44996786 -0.42996755
000350 d8 ae aa be 46 4f 85 be 51 ec 00 bf a2 33 ab be
       -0.3333652 -0.26037043 -0.5036059 -0.3343783
000360 35 f9 53 be 94 d9 ba be 76 d1 e1 bd 1e 02 ad bd
       -0.20700534 -0.36494124 -0.1102628 -0.084476694
000370 b1 e7 a9 bd 11 53 e3 3d f2 86 41 be 47 28 86 be
       -0.08296145 0.11099828 -0.18899134 -0.26202604
000380 9d c4 53 be 50 f3 5b be f6 94 e8 bd 2b 7f 1f bd
       -0.20680471 -0.21479535 -0.11356537 -0.038939636
000390 e9 7d 54 bd 5c 2d 07 3e a8 d0 65 be 1c 9b c8 bd
       -0.05187789 0.13200897 -0.22442877 -0.0979521
0003a0 be 02 ae bd c4 a7 8a be 57 15 98 be af 0c 3e be
       -0.08496617 -0.2708112 -0.2970378 -0.18559526
0003b0 18 f2 39 be 70 d9 91 be 35 e9 b6 be 72 d0 90 be
       -0.18158758 -0.28486204 -0.35724798 -0.2828403
0003c0 ca e9 0f bf 49 86 e8 be 7c e7 88 be 39 c2 91 be
       -0.5621611 -0.4541495 -0.2673911 -0.28468493
0003d0 32 b9 80 be b6 85 57 3b 0c cb 4b be 49 8b 29 be
       -0.25141293 0.0032886094 -0.19901675 -0.1655704
0003e0 b9 5d be bd 5f 3f 56 be bf 40 d5 bd c8 93 fc bd
       -0.0929522 -0.20922612 -0.1041274 -0.123328745
0003f0 27 1d c7 3d c5 51 c4 3d 7a f2 17 3e 24 13 15 be
       0.09722357 0.09585909 0.14838591 -0.14558083

exp_avg f4 [20, 784]
000000 00 00 00 00 00 00 00 00 00 00 00 00 00 00 00 00
       0.0 0.0 0.0 0.0
000010 00 00 00 00 00 00 00 00 00 00 00 00 00 00 00 00
       0.0 0.0 0.0 0.0
000020 00 00 00 00 00 00 00 00 00 00 00 00 00 00 00 00
       0.0 0.0 0.0 0.0
000030 ee 3d 1d 2b 20 27 ac 2b 08 00 00 80 04 00 00 80
       5.586355e-13 1.2232194e-12 -1.1e-44 -6e-45
000040 00 00 00 00 00 00 00 00 00 00 00 00 00 00 00 00
       0.0 0.0 0.0 0.0
000050 00 00 00 00 00 00 00 00 00 00 00 00 00 00 00 00
       0.0 0.0 0.0 0.0
000060 00 00 00 00 00 00 00 00 00 00 00 00 00 00 00 00
       0.0 0.0 0.0 0.0
000070 00 00 00 00 00 00 00 00 00 00 00 00 00 00 00 00
       0.0 0.0 0.0 0.0
000080 04 00 00 00 0c 00 00 00 c4 f1 fa a9 11 c2 a3 2d
       6e-45 1.7e-44 -1.114417e-13 1.8617137e-11
000090 98 02 f6 ad f9 eb 37 b1 bb a9 ab b1 34 45 5e 30
       -2.7968114e-11 -2.676414e-09 -4.996051e-09 8.0861473e-10
0000a0 a0 58 f2 30 d3 ab aa b1 a2 7f 2b b2 f5 6f 23 b3
       1.7633006e-09 -4.9671853e-09 -9.98253e-09 -3.805322e-08
0000b0 e2 8d 81 b4 8e 35 71 b3 a5 d4 5c 32 e8 da 8f b3
       -2.4131356e-07 -5.6160893e-08 1.2854035e-08 -6.698775e-08
0000c0 5e 3b da b2 66 43 5d 2f f6 26 8e ac 0e 9c c6 ac
       -2.5405537e-08 2.0123778e-10 -4.0402083e-12 -5.644824e-12
0000d0 00 00 00 00 00 00 00 00 00 00 00 00 00 00 00 00
       0.0 0.0 0.0 0.0
0000e0 00 00 00 00 00 00 00 00 0b 00 00 00 31 b2 95 91
       0.0 0.0 1.5e-44 -2.3617874e-28
0000f0 70 d8 44 b4 0c 06 0d b3 c6 c4 68 b2 20 fc 90 b3
       -1.8332662e-07 -3.283462e-08 -1.3548918e-08 -6.751384e-08
000100 e4 db a7 b4 9e ce 22 b5 f5 f4 6f b5 b5 3b 5f b5
       -3.1266165e-07 -6.065037e-07 -8.93909e-07 -8.316086e-07
000110 52 cd 55 b5 fe 73 65 b5 be 06 28 b4 33 d4 53 b5
       -7.9647464e-07 -8.547794e-07 -1.5648672e-07 -7.8912416e-07
000120 b1 0e a3 b5 02 a9 13 32 94 c0 eb 34 93 1c db 31
       -1.2148722e-06 8.594954e-09 4.391228e-07 6.3769874e-09
000130 6a 51 28 b4 7d 96 39 34 b5 27 27 33 01 c3 29 32
       -1.5675838e-07 1.7284215e-07 3.891883e-08 9.8814334e-09
000140 27 dc e6 b1 b8 3e b9 a4 00 00 00 00 00 00 00 00
       -6.7189094e-09 -8.033721e-17 0.0 0.0
000150 00 00 00 00 00 00 00 00 07 81 ad 23 78 2c ce 2a
       0.0 0.0 1.8811343e-17 3.6623807e-13
000160 2d 04 0d b3 a5 84 0f b2 09 29 84 b3 2b 26 75 b4
       -3.283292e-08 -8.353855e-09 -6.154193e-08 -2.2831289e-07
000170 b3 f6 80 b4 b8 59 6e b5 d0 45 72 b5 91 76 69 b5
       -2.4021355e-07 -8.8792467e-07 -9.0253616e-07 -8.69718e-07
000180 15 28 80 b5 a3 e1 9b 34 e2 3b 05 34 52 12 02 b5
       -9.548409e-07 2.9035172e-07 1.2408375e-07 -4.8455433e-07
000190 cd c7 f5 b3 f8 df 28 35 c7 66 8a 34 c7 55 18 b5
       -1.1445045e-07 6.2910794e-07 2.5779283e-07 -5.6749235e-07
0001a0 c1 c2 0e b4 ac 7e c7 34 4d 6b 05 34 a2 56 83 33
       -1.3295632e-07 3.7158804e-07 1.2425626e-07 6.115921e-08
0001b0 f6 07 0e 32 bf 08 c9 b2 46 43 38 b3 00 00 00 00
       8.267298e-09 -2.3403457e-08 -4.2902023e-08 0.0
0001c0 00 00 00 00 52 9d 4f 98 0b cb f9 af 34 6b 18 b2
       0.0 -2.683355e-24 -4.5437107e-10 -8.87194e-09
0001d0 53 99 1f 33 37 7f 21 34 96 81 b5 34 b2 05 b6 35
       3.715952e-08 1.5040574e-07 3.3808163e-07 1.3561714e-06
0001e0 df a0 de 35 90 e2 37 35 06 9e 8b 34 3e 80 9e 35
       1.6587109e-06 6.8502504e-07 2.6005745e-07 1.1809241e-06
0001f0 a5 81 32 36 c5 7d 89 36 8f 4e 91 36 d9 59 a0 36
       2.659953e-06 4.0975597e-06 4.330482e-06 4.778831e-06
000200 2e 0d b2 36 f3 78 08 36 99 3d a7 35 a3 bf 3c 35
       5.3063477e-06 2.033598e-06 1.2460397e-06 7.0314326e-07
000210 c6 68 33 33 bc 62 03 35 6c c5 0d 34 33 f0 8b b2
       4.1771976e-08 4.894498e-07 1.320347e-07 -1.629096e-08
000220 83 17 a5 b3 70 61 47 b4 cd f0 d0 b1 3d 98 d4 22
       -7.687688e-08 -1.8568767e-07 -6.0809726e-09 5.7623904e-18
000230 00 00 00 00 00 00 00 00 61 87 26 af 07 52 c9 34
       0.0 0.0 -1.5145708e-10 3.749885e-07
000240 5a 63 2b 35 c4 71 75 35 f2 87 98 35 58 fe d9 35
       6.384704e-07 9.1435163e-07 1.1364448e-06 1.6241784e-06
000250 fc ad a7 35 b4 66 8b 35 43 b7 d6 b4 ce 3f d2 35
       1.2493106e-06 1.0386198e-06 -3.9993947e-07 1.5664789e-06
000260 81 ba 78 36 56 90 d0 36 a2 bc 46 37 c2 08 61 37
       3.706344e-06 6.215686e-06 1.1845639e-05 1.3413084e-05
000270 69 6a 33 37 53 11 dc 36 e9 e6 ce 36 01 32 aa 36
       1.0694007e-05 6.5585277e-06 6.16616e-06 5.072216e-06
000280 88 c8 9f 35 24 0d 5d 36 05 78 f7 35 87 5a 5e b5
       1.1904785e-06 3.2939215e-06 1.8437864e-06 -8.283318e-07
000290 27 1d 10 b5 95 40 8d b4 2b d7 31 b3 9e 86 8b 9e
       -5.36866e-07 -2.6310286e-07 -4.1406718e-08 -1.4772874e-20
0002a0 00 00 00 00 ba 84 42 9d 48 eb a2 b3 5c 52 09 35
       0.0 -2.5744304e-21 -7.58651e-08 5.1156326e-07
0002b0 c6 60 cd 34 de 0d 8e 35 b4 57 48 35 45 15 bc 34
       3.8254638e-07 1.058386e-06 7.463343e-07 3.5033204e-07
0002c0 3b 67 6e 33 e7 8e ed b5 fa d0 e2 b5 42 1b f0 35
       5.550758e-08 -1.7699466e-06 -1.6899132e-06 1.7889327e-06
0002d0 82 72 b1 36 5a 75 46 37 75 c5 a0 37 fb 2b 9f 37
       5.2883415e-06 1.1829043e-05 1.9165434e-05 1.8974757e-05
0002e0 11 a2 76 37 34 ae 27 37 ce 21 1e 37 ac 2d 0d 37
       1.4700477e-05 9.9945355e-06 9.425405e-06 8.414889e-06
0002f0 4b 9f 11 36 7e cd 93 36 05 7c ab 36 e8 08 8c 35
       2.1699404e-06 4.404864e-06 5.110635e-06 1.0433405e-06
000300 33 24 39 b4 2e a0 9c b3 60 f8 df 34 ea a6 7f 34
       -1.7242637e-07 -7.2934526e-08 4.1717703e-07 2.3809449e-07
000310 04 00 00 80 e3 ed c9 2f 3f 71 83 b3 18 06 8f 33
       -6e-45 3.6730716e-10 -6.120762e-08 6.660065e-08
000320 16 a1 3a 35 5d 94 a4 35 32 3a 9c 34 dc cd 68 b5
       6.952481e-07 1.2262132e-06 2.9099607e-07 -8.67263e-07
000330 01 7f 6d b5 38 fb 0b b6 f2 d0 76 b6 1a d4 80 b6
       -8.8474195e-07 -2.0858843e-06 -3.6778479e-06 -3.839389e-06
000340 a7 8b a9 36 6c c8 7e 37 a6 49 b7 37 eb 01 aa 37
       5.05285e-06 1.5186244e-05 2.1849595e-05 2.0266472e-05
000350 72 39 77 37 17 4b 3e 37 18 02 09 37 5e c6 22 37
       1.4735722e-05 1.1342366e-05 8.166324e-06 9.702138e-06
000360 23 b2 bc 36 41 0d b6 36 80 68 05 37 dc a8 21 36
       5.6235745e-06 5.4255656e-06 7.951749e-06 2.4089159e-06
000370 7b d8 dc b4 a0 2c 29 b5 ad 84 36 b5 ee cb d7 32
       -4.1135704e-07 -6.3022344e-07 -6.799335e-07 2.512203e-08
000380 3f 08 9d b1 d7 08 f0 b0 a3 d4 36 b3 9e 8f 05 b5
       -4.570239e-09 -1.7464811e-09 -4.256857e-08 -4.975535e-07
000390 bc 30 39 b4 89 1b 4b 35 e2 10 f4 b2 4a a8 5c b5
       -1.7247197e-07 7.566346e-07 -2.8413016e-08 -8.220128e-07
0003a0 be 16 87 b5 e8 11 94 b6 e8 8e 18 b7 f7 0d e0 b6
       -1.0064903e-06 -4.4128283e-06 -9.093179e-06 -6.677346e-06
0003b0 d9 6d 93 36 66 e6 58 37 b9 e3 8d 37 4d ea 77 37
       4.3937293e-06 1.2928247e-05 1.6914551e-05 1.47769e-05
0003c0 3a 96 4b 37 7d 7f 05 37 31 86 c8 36 a2 eb ea 36
       1.213472e-05 7.957101e-06 5.9760864e-06 7.0011747e-06
0003d0 d0 d8 03 37 ab 02 05 37 c3 81 0d 37 02 05 3b 36
       7.858689e-06 7.928039e-06 8.434467e-06 2.7868086e-06
0003e0 2c 7c f9 34 52 cc 02 b5 aa 16 ad b4 52 12 81 2b
       4.647021e-07 -4.87261e-07 -3.224025e-07 9.171086e-13
0003f0 a1 65 a8 93 84 29 9d b2 02 19 04 b3 b0 d1 b7 b5
       -4.2509376e-27 -1.8296085e-08 -3.075639e-08 -1.369559e-06

exp_avg_sq f4 [20, 784]
000000 00 00 00 00 00 00 00 00 00 00 00 00 00 00 00 00
       0.0 0.0 0.0 0.0
000010 00 00 00 00 00 00 00 00 00 00 00 00 00 00 00 00
       0.0 0.0 0.0 0.0
000020 00 00 00 00 00 00 00 00 00 00 00 00 00 00 00 00
       0.0 0.0 0.0 0.0
000030 19 4d 40 27 26 0c b0 28 5e b6 f5 27 3c 69 5a 23
       2.6687147e-15 1.9545194e-14 6.8198883e-15 1.1840088e-17
000040 00 00 00 00 00 00 00 00 00 00 00 00 00 00 00 00
       0.0 0.0 0.0 0.0
000050 00 00 00 00 00 00 00 00 00 00 00 00 00 00 00 00
       0.0 0.0 0.0 0.0
000060 00 00 00 00 00 00 00 00 00 00 00 00 00 00 00 00
       0.0 0.0 0.0 0.0
000070 00 00 00 00 00 00 00 00 00 00 00 00 00 00 00 00
       0.0 0.0 0.0 0.0
000080 13 a1 a4 22 f5 c5 4b 25 34 0c 83 29 b4 2b e1 29
       4.4622833e-18 1.7674514e-16 5.8196856e-14 9.9995885e-14
000090 a2 a8 ec 29 4b f8 53 2a 6d b7 ab 2a e5 b2 d3 2a
       1.05097585e-13 1.8826709e-13 3.050298e-13 3.7605262e-13
0000a0 76 8c 85 2a b4 e5 61 2a 41 51 4e 2a 26 82 0a 2b
       2.372301e-13 2.0063709e-13 1.8324666e-13 4.9208066e-13
0000b0 50 d1 04 2b 62 2c 07 2b 1e f6 c3 2a 77 fc 57 2a
       4.71863e-13 4.802323e-13 3.4809736e-13 1.9183427e-13
0000c0 d2 05 59 2a a9 45 ab 29 25 b3 07 29 56 17 2b 28
       1.9275491e-13 7.6060096e-14 3.0131405e-14 9.497467e-15
0000d0 00 00 00 00 00 00 00 00 00 00 00 00 00 00 00 00
       0.0 0.0 0.0 0.0
0000e0 00 00 00 00 00 00 00 00 08 a0 88 27 21 ae c2 24
       0.0 0.0 3.792109e-15 8.4429074e-17
0000f0 fe 7e f8 27 3b e3 3e 27 a7 30 29 2a 85 1e f0 2a
       6.8971513e-15 2.6490979e-15 1.5027095e-13 4.265374e-13
000100 f6 2c 85 2b 9e 5e 14 2c 30 76 77 2c 91 47 a4 2c
       9.462698e-13 2.1084588e-12 3.5166418e-12 4.669106e-12
000110 a5 ea ee 2c 6a 77 3f 2d 4c 8f 59 2d 10 a8 88 2d
       6.7904176e-12 1.0883608e-11 1.236684e-11 1.5536045e-11
000120 a3 5e 5f 2d 5d 03 3f 2d fe 2f 5f 2d 2d 3e 2f 2d
       1.2697096e-11 1.085784e-11 1.2686739e-11 9.961404e-12
000130 e1 56 cc 2c 6d 86 0b 2c 52 fd 7d 2b b1 f8 d0 2a
       5.8076742e-12 1.982771e-12 9.023521e-13 3.7120787e-13
000140 0a cd a5 29 dd 07 85 27 00 00 00 00 00 00 00 00
       7.3630406e-14 3.692344e-15 0.0 0.0
000150 00 00 00 00 00 00 00 00 dd 45 cb 28 4f aa 1e 28
       0.0 0.0 2.2567826e-14 8.807692e-15
000160 9b 83 c1 28 a9 ff 51 2b 8f ef c3 2b a9 6b 15 2c
       2.1484379e-14 7.4606516e-13 1.3922074e-12 2.1233937e-12
000170 7b 4b 66 2c d5 d3 09 2d 55 48 81 2d ef 1f c9 2d
       3.2726866e-12 7.8345845e-12 1.4697724e-11 2.2865236e-11
000180 fd 81 01 2e fe 5b 24 2e 6f 3d 57 2e 12 ec 84 2e
       2.9446657e-11 3.7370988e-11 4.8939904e-11 6.0445995e-11
000190 51 2d 54 2e 2a f1 45 2e a8 19 58 2e 37 ed 17 2e
       4.8243468e-11 4.500681e-11 4.91355e-11 3.4544114e-11
0001a0 8a e4 a0 2d 1e 5b 2d 2d 8c 82 8f 2c d1 6d 01 2c
       1.8291386e-11 9.8541435e-12 4.078798e-12 1.8392963e-12
0001b0 ed 36 02 2b e5 d1 24 29 ac 1c a3 26 00 00 00 00
       4.62615e-13 3.659737e-14 1.1318169e-15 0.0
0001c0 00 00 00 00 d1 09 01 21 97 51 5e 29 13 42 87 28
       0.0 4.371989e-19 4.936467e-14 1.5016666e-14
0001d0 a7 09 50 2a cb 98 a1 2b dc 08 59 2c 64 f6 0d 2d
       1.847746e-13 1.1482147e-12 3.0842473e-12 8.069632e-12
0001e0 cd 02 a6 2d d9 be 2a 2e c1 e8 9c 2e 20 a0 f1 2e
       1.8873259e-11 3.882303e-11 7.135404e-11 1.0987855e-10
0001f0 3a 94 35 2f 01 b3 7b 2f d2 2c 9c 2f 0a 44 b0 2f
       1.6514515e-10 2.2891912e-10 2.8408081e-10 3.2062558e-10
000200 af c4 ae 2f 49 f6 ad 2f c6 33 69 2f f8 66 12 2f
       3.1790168e-10 3.1643513e-10 2.120962e-10 1.3315204e-10
000210 27 9e ba 2e cc 8e 53 2e e8 e4 a2 2d 10 22 05 2d
       8.486394e-11 4.8102675e-11 1.8518923e-11 7.567738e-12
000220 e5 98 39 2c c5 72 b9 2a eb 57 f4 28 dd 81 f0 26
       2.6374955e-12 3.294224e-13 2.712757e-14 1.6688545e-15
000230 00 00 00 00 00 00 00 00 7b 23 51 27 ae f3 04 2a
       0.0 0.0 2.902381e-15 1.1808499e-13
000240 d1 5f ae 2b fa 9c ac 2c f8 55 74 2d 51 db 19 2e
       1.2390038e-12 4.905962e-12 1.3888883e-11 3.4982964e-11
000250 a6 da ad 2e 99 a4 15 2f 2a 26 82 2f 39 d7 c5 2f
       7.905969e-11 1.3609948e-10 2.367398e-10 3.5987016e-10
000260 aa f7 12 30 84 bb 3b 30 ae 50 61 30 77 d3 8a 30
       5.346644e-10 6.829668e-10 8.1969176e-10 1.0100923e-09
000270 27 bb 99 30 33 5f 7a 30 2a f8 1e 30 86 51 c6 2f
       1.1185407e-09 9.1084756e-10 5.783273e-10 3.6073916e-10
000280 59 e7 85 2f c5 ec 1a 2f 0a b8 91 2e 2b 7b 00 2e
       2.4356941e-10 1.4090336e-10 6.6265285e-11 2.9213226e-11
000290 74 43 3f 2d c4 17 1f 2c 63 df a4 2a f0 83 bf 27
       1.0872071e-11 2.2608452e-12 2.9287258e-13 5.3156196e-15
0002a0 00 00 00 00 f2 4d 21 23 14 09 dd 28 27 77 61 2b
       0.0 8.744333e-18 2.4539866e-14 8.0101415e-13
0002b0 4a 86 8e 2c 3e b0 6d 2d cc 7c 2f 2e 73 11 dd 2e
       4.050792e-12 1.3511024e-11 3.9901235e-11 1.0053016e-10
0002c0 6b b1 57 2f 50 99 b8 2f 58 ef 15 30 cd f0 4e 30
       1.9617168e-10 3.357834e-10 5.454601e-10 7.528456e-10
0002d0 c7 c5 87 30 11 4c b1 30 3e 13 e4 30 c9 a5 14 31
       9.878754e-10 1.2900064e-09 1.6594652e-09 2.1631072e-09
0002e0 a9 00 1a 31 4c 48 e6 30 8d 67 8e 30 58 dc 25 30
       2.2410325e-09 1.675525e-09 1.0361291e-09 6.033978e-10
0002f0 1f 2c e6 2f fc 2c 92 2f aa 00 0b 2f 7a 29 8a 2e
       4.1868106e-10 2.658921e-10 1.2642212e-10 6.282881e-11
000300 17 c9 da 2d 96 16 05 2d a0 1c 9e 2b e8 58 b8 29
       2.4873032e-11 7.56519e-12 1.123452e-12 8.186664e-14
000310 11 66 de 23 d3 34 49 29 aa 03 7b 2a cc 6a 19 2c
       2.4112515e-17 4.4676783e-14 2.229455e-13 2.1801892e-12
000320 f9 c5 1e 2d 5b a2 fe 2d 2a 85 b2 2e ab d1 57 2f
       9.025219e-12 2.8948557e-11 8.1181575e-11 1.9628625e-10
000330 44 f0 c9 2f c8 a1 2e 30 2d 47 89 30 8d c8 b0 30
       3.6732406e-10 6.3530736e-10 9.988291e-10 1.2862685e-09
000340 90 1a ce 30 2f c8 04 31 5d e3 2c 31 a8 65 69 31
       1.4996022e-09 1.932232e-09 2.5158535e-09 3.3963747e-09
000350 0e bd 6d 31 04 18 28 31 06 46 c6 30 a8 99 5e 30
       3.4595504e-09 2.4460869e-09 1.4426298e-09 8.098149e-10
000360 ba 4b 10 30 12 70 aa 2f 8f dc 39 2f b3 53 c3 2e
       5.249451e-10 3.100245e-10 1.690401e-10 8.882441e-11
000370 d0 08 1b 2e 83 0f 55 2d 1d b3 ee 2b a2 a3 42 2a
       3.5250747e-11 1.21110925e-11 1.6960631e-12 1.7287433e-13
000380 a9 f1 db 26 53 16 61 2a 09 50 90 2b 3b 01 b0 2c
       1.526168e-15 1.999176e-13 1.025403e-12 5.0023575e-12
000390 12 ea 92 2d 84 4c 39 2e d3 72 de 2e 13 74 8a 2f
       1.6702226e-11 4.213209e-11 1.0115788e-10 2.518453e-10
0003a0 0f de 0c 30 a3 6e 83 30 db f1 c5 30 28 56 c7 30
       5.124727e-10 9.562949e-10 1.4402376e-09 1.4503643e-09
0003b0 a6 bf d0 30 03 e4 fc 30 20 f6 2c 31 5f cd 7a 31
       1.5188462e-09 1.8400218e-09 2.51692e-09 3.6496528e-09
0003c0 70 df 7a 31 65 20 37 31 a5 6d d9 30 13 e6 6b 30
       3.6506798e-09 2.664842e-09 1.5819991e-09 8.5819457e-10
0003d0 77 57 0c 30 1d a4 9f 2f 0b a9 37 2f ae e4 a8 2e
       5.1056e-10 2.903854e-10 1.6703809e-10 7.680377e-11
0003e0 42 50 0a 2e bd 91 66 2d f3 bc 11 2c 5a db 0d 2a
       3.144885e-11 1.3106347e-11 2.0710627e-12 1.2599419e-13
0003f0 0e 6e 1b 29 cb 87 da 2a 7f 4c f4 2b c8 75 00 2d
       3.451237e-14 3.8818804e-13 1.7358475e-12 7.30211e-12

exp_avg f4 [20]
000000 12 65 8a b7 76 ed eb b7 ac 4f 3d b8 79 d2 90 b9
       -1.6497946e-05 -2.812476e-05 -4.513531e-05 -0.00027622635
000010 47 49 1e 38 04 00 00 00 d3 17 70 b8 ca fc 14 b8
       3.773838e-05 6e-45 -5.7242647e-05 -3.5521378e-05
000020 04 00 00 00 7d 66 9a b7 0c 41 c1 b8 8f c8 5e b8
       6e-45 -1.8405955e-05 -9.215073e-05 -5.311571e-05
000030 04 00 00 00 7d fb 8a 38 b8 73 05 b8 6a f9 25 b7
       6e-45 6.627196e-05 -3.1817443e-05 -9.892838e-06
000040 a7 a3 82 38 06 2c 44 38 04 00 00 00 ab 49 a7 b8
       6.229366e-05 4.677104e-05 6e-45 -7.976902e-05

exp_avg_sq f4 [20]
000000 bc a4 97 32 1b d6 5f 32 70 f5 bf 32 08 43 9e 33
       1.7653626e-08 1.302899e-08 2.2346939e-08 7.369641e-08
000010 77 97 01 32 9e d6 2a 2e 75 34 4c 32 93 9a 8e 31
       7.543227e-09 3.8844143e-11 1.188629e-08 4.150317e-09
000020 57 75 34 30 b5 37 8d 32 e8 db 3c 32 46 7a 82 32
       6.565037e-10 1.6439893e-08 1.0993041e-08 1.5189595e-08
000030 97 04 fa 2f 78 dd 97 32 41 17 0f 32 3d f7 53 32
       4.5477996e-10 1.7679426e-08 8.328983e-09 1.2338032e-08
000040 e1 f6 31 32 a3 51 27 32 3d 6f 32 2f 3a c1 b4 32
       1.035889e-08 9.739241e-09 1.6228525e-10 2.1042627e-08

exp_avg f4 [784, 20]
000000 62 80 31 34 b4 40 f6 33 4a ba 1a 34 ba eb 95 33
       1.6531115e-07 1.1467037e-07 1.4410139e-07 6.9812316e-08
000010 90 71 ca 32 04 00 00 00 f5 44 bb 33 2a 98 4c 34
       2.3567537e-08 6e-45 8.720409e-08 1.9054337e-07
000020 04 00 00 00 73 8d df 33 74 7d 58 33 b0 ef db 33
       6e-45 1.0409976e-07 5.0405518e-08 1.0241581e-07
000030 04 00 00 00 e4 cc 14 34 da f9 cf 33 93 2d 30 34
       6e-45 1.3858113e-07 9.6846364e-08 1.6407857e-07
000040 11 f6 18 34 ab 11 8c 33 04 00 00 00 0a 9c c6 33
       1.4245622e-07 6.522472e-08 6e-45 9.248477e-08
000050 7d 59 79 33 03 95 10 33 16 6e 76 33 2f e3 63 33
       5.805622e-08 3.3663138e-08 5.737646e-08 5.305918e-08
000060 73 97 43 33 04 00 00 00 f0 8c 0c 33 97 30 34 33
       4.5539718e-08 6e-45 3.2724472e-08 4.1953708e-08
000070 04 00 00 00 d7 12 3b 33 94 a3 cb 32 77 78 39 33
       6e-45 4.3556465e-08 2.3706697e-08 4.318323e-08
000080 04 00 00 00 2e c7 4a 33 d7 13 97 32 75 40 48 33
       6e-45 4.7212943e-08 1.7587736e-08 4.6624752e-08
000090 05 03 6e 33 f1 f6 29 33 04 00 00 00 05 82 38 33
       5.541644e-08 3.957297e-08 6e-45 4.295909e-08
0000a0 a4 5b f3 33 a1 ae 93 33 51 29 e5 33 3f 1c cc 33
       1.13322386e-07 6.876986e-08 1.0671159e-07 9.504628e-08
0000b0 74 be 39 33 04 00 00 00 ce a2 92 33 4c 2a 8a 33
       4.3246885e-08 6e-45 6.828269e-08 6.4338195e-08
0000c0 04 00 00 00 44 93 9f 33 09 11 29 33 5b 00 97 33
       6e-45 7.430802e-08 3.9363872e-08 7.03155e-08
0000d0 04 00 00 00 45 2e c1 33 9e d5 2d 33 98 f3 9c 33
       6e-45 8.995679e-08 4.0473985e-08 7.3086255e-08
0000e0 26 89 e9 33 59 cf 7b 33 04 00 00 00 2c fd 8a 33
       1.0874855e-07 5.8629073e-08 6e-45 6.4721775e-08
0000f0 a3 b0 f9 34 9e 0e 66 34 3b 83 de 34 57 30 ee 33
       4.6508384e-07 2.1425737e-07 4.1446205e-07 1.10915316e-07
000100 64 62 cb 33 04 00 00 00 f5 c3 11 34 9e bc c4 34
       9.470821e-08 6e-45 1.3575466e-07 3.6645082e-07
000110 04 00 00 00 0a 2f 39 34 eb ea e4 34 7a d4 a8 34
       6e-45 1.724658e-07 4.2639235e-07 3.1447036e-07
000120 04 00 00 00 df 5b 86 34 07 9d b5 34 e7 0d fd 34
       6e-45 2.502629e-07 3.382813e-07 4.7135038e-07
000130 2b 2e a5 34 c7 55 bb 33 04 00 00 00 51 a6 24 34
       3.0767237e-07 8.723469e-08 6e-45 1.5334196e-07
000140 bf 4a 4b 33 bb 63 d3 32 c5 a9 52 33 bb 97 7a 33
       4.7332602e-08 2.4608985e-08 4.904884e-08 5.834566e-08
000150 c4 3a 41 33 04 00 00 00 1a 1f 14 33 a4 40 e2 32
       4.498976e-08 6e-45 3.4487222e-08 2.6339258e-08
000160 04 00 00 00 30 0f 32 33 e5 48 22 33 7f 28 03 33
       6e-45 4.1457668e-08 3.778486e-08 3.0537645e-08
000170 04 00 00 00 3a 44 25 33 7f 12 91 32 02 5d 4f 33
       6e-45 3.8479108e-08 1.6888633e-08 4.8280533e-08
000180 d8 57 50 33 2a 74 ca 32 04 00 00 00 49 40 08 33
       4.8508667e-08 2.356872e-08 6e-45 3.1723435e-08
000190 3d 81 26 33 69 01 0d 33 ac cc 08 33 84 ab 0f 33
       3.876743e-08 3.2830403e-08 3.1851116e-08 3.3450775e-08
0001a0 94 6a a1 32 04 00 00 00 6a 90 b1 32 64 a6 10 33
       1.8791333e-08 6e-45 2.0671184e-08 3.3678944e-08
0001b0 04 00 00 00 9e 70 03 33 b4 b7 9c 32 2b 0c d4 32
       6e-45 3.060324e-08 1.8244329e-08 2.4685582e-08
0001c0 04 00 00 00 51 af f8 32 ce 18 a9 32 ee 0e ed 32
       6e-45 2.8950724e-08 1.968547e-08 2.759722e-08
0001d0 43 1a f9 32 96 3a e6 32 04 00 00 00 63 81 a3 32
       2.8999358e-08 2.6802166e-08 6e-45 1.9034536e-08
0001e0 d0 47 f4 32 0e 5b ae 32 27 fe 12 33 d3 12 f1 31
       2.8437995e-08 2.0297673e-08 3.4224424e-08 7.016163e-09
0001f0 26 2c 04 32 04 00 00 00 a9 a4 34 32 bc c4 01 33
       7.693449e-09 6e-45 1.0514818e-08 3.0214082e-08
000200 04 00 00 00 7a ee ee 32 be 7b 1d 33 33 c1 aa 32
       6e-45 2.7815293e-08 3.6666954e-08 1.9878462e-08
000210 04 00 00 00 a8 2f d0 32 c8 26 cc 32 41 be 1b 33
       6e-45 2.4236058e-08 2.3766361e-08 3.6261785e-08
000220 63 ae 15 33 57 c3 2c 32 04 00 00 00 88 be 5c 32
       3.485037e-08 1.0056133e-08 6e-45 1.2849007e-08
000230 7a e4 59 34 aa 5a db 33 bb 4c 35 34 5f ea 54 33
       2.0292819e-07 1.0214474e-07 1.6884853e-07 4.9573256e-08
000240 e9 2a 5a 33 04 00 00 00 19 31 17 34 2f 1c 25 34
       5.0796107e-08 6e-45 1.4080832e-07 1.5377076e-07
000250 04 00 00 00 10 46 16 34 fe 77 91 33 16 87 23 34
       6e-45 1.3995327e-07 6.773915e-08 1.5229702e-07
000260 04 00 00 00 d4 29 20 34 31 39 b4 33 9a ef 34 34
       6e-45 1.4916378e-07 8.392306e-08 1.6850973e-07
000270 c8 bf 80 34 24 08 af 33 04 00 00 00 f8 0d 1f 34
       2.3981397e-07 8.150553e-08 6e-45 1.4813111e-07
000280 8e f6 94 33 a4 a5 37 33 77 4c 62 33 29 d8 0c 33
       6.936635e-08 4.2758657e-08 5.268927e-08 3.2792887e-08
000290 d7 2c 97 32 04 00 00 00 56 bb 01 33 c0 2e a5 33
       1.7599104e-08 6e-45 3.0205534e-08 7.691915e-08
0002a0 04 00 00 00 85 a9 58 33 f6 f2 86 33 ef 9d 24 33
       6e-45 5.0445596e-08 6.2840556e-08 3.8327865e-08
0002b0 04 00 00 00 07 f3 39 33 c9 ac 65 33 43 86 6b 33
       6e-45 4.32947e-08 5.3475365e-08 5.483731e-08
0002c0 8d 2d 4c 33 f2 a4 ff 32 04 00 00 00 98 49 d8 32
       4.753888e-08 2.9760916e-08 6e-45 2.5179176e-08
0002d0 c9 eb aa 34 be 14 3a 34 2c fe 9b 34 20 35 3e 34
       3.1836524e-07 1.7330146e-07 2.9055934e-07 1.7714456e-07
0002e0 5f bb e9 33 04 00 00 00 00 84 87 34 13 46 8d 34
       1.08839906e-07 6e-45 2.5241752e-07 2.6314282e-07
0002f0 04 00 00 00 f5 ed 87 34 d2 86 79 34 1f 34 3c 34
       6e-45 2.5318846e-07 2.323898e-07 1.7527826e-07
000300 04 00 00 00 b9 aa 4c 34 8b 7a 8b 34 c2 b2 b3 34
       6e-45 1.9061089e-07 2.597993e-07 3.3471412e-07
000310 e1 2d 50 34 2f 16 f2 33 04 00 00 00 14 19 2e 34
       1.93882e-07 1.1273038e-07 6e-45 1.6214136e-07
000320 33 8e 85 34 0f 6e e1 33 50 e9 74 34 ae a1 62 34
       2.4876644e-07 1.04973985e-07 2.280915e-07 2.1106709e-07
000330 9f 65 2b 34 04 00 00 00 43 fd 24 34 56 b6 0f 34
       1.5962586e-07 6e-45 1.5365826e-07 1.3384246e-07
000340 04 00 00 00 7e b9 10 34 77 33 05 34 9d bc 28 34
       6e-45 1.3478527e-07 1.2405313e-07 1.5714836e-07
000350 04 00 00 00 45 85 4f 34 4b e9 5e 33 a0 91 5e 34
       6e-45 1.932686e-07 5.190058e-08 2.0728339e-07
000360 ac ce 69 34 5d 3e c5 33 04 00 00 00 f1 b1 11 34
       2.1775003e-07 9.184871e-08 6e-45 1.3568912e-07
000370 b7 03 9e 34 79 81 9a 34 d6 42 e1 34 c3 85 4c 34
       2.9432496e-07 2.877894e-07 4.1958145e-07 1.9047643e-07
000380 d0 49 6a 33 04 00 00 00 47 a6 19 34 1b e9 90 34
       5.4549503e-08 6e-45 1.4309727e-07 2.6991697e-07
000390 04 00 00 00 e9 0c b1 34 e4 1d ad 33 55 72 90 34
       6e-45 3.2978213e-07 8.061377e-08 2.6905278e-07
0003a0 04 00 00 00 da c1 d7 34 51 a7 44 34 1c d8 b6 34
       6e-45 4.0187916e-07 1.8314792e-07 3.4057382e-07
0003b0 53 57 00 35 37 5b 52 34 04 00 00 00 d9 e1 59 34
       4.781079e-07 1.9590958e-07 6e-45 2.0291863e-07
0003c0 62 dd 5c 34 31 f3 2a 34 60 b4 71 34 96 94 1c 33
       2.0569635e-07 1.5920956e-07 2.2510494e-07 3.645672e-08
0003d0 7a c2 ca 33 04 00 00 00 b6 26 90 33 3d 5c 69 34
       9.441733e-08 6e-45 6.712564e-08 2.1733372e-07
0003e0 04 00 00 00 06 8d ce 33 f9 4e 2f 33 30 75 2b 34
       6e-45 9.6182745e-08 4.0817188e-08 1.5968249e-07
0003f0 04 00 00 00 cc 20 30 34 3a a5 03 34 fb e2 7f 34
       6e-45 1.6403209e-07 1.2260435e-07 2.38313e-07
